policy.pth (torch, 40705 bytes, 11 tensors)

mlp_extractor.policy_net.0.weight f4 [64, 4]
-0.12505963 0.107724346 0.21861172 0.17843783 -0.25612426 -0.10930314 0.27359816 0.3668732
-0.10278195 0.14016771 0.29533532 0.34072867 0.10703576 0.023759201 0.024909973 0.06159028
-0.121692866 0.06156575 -0.37485397 -0.17285268 -0.099147275 -0.04868434 -0.09224512 -0.20062983
0.22465962 -0.12957016 -0.04625322 0.11106389 -0.32386726 -0.2084015 0.37314874 0.04115465
0.346168 0.30219245 0.3077504 0.30464184 -0.29247174 -0.21941872 -0.080958426 -0.36428747
0.31674814 0.019842952 -0.15311839 -0.27559343 -0.10760559 0.09833023 -0.029429533 0.5351788
-0.11733226 0.20044057 0.009601194 0.4548848 -0.09312332 0.03360789 0.4504404 0.18919508
0.18672065 0.28283027 -0.14903879 0.074035384 0.17291604 0.33001468 -0.14124402 0.16730265
0.24891503 0.04106545 0.46414596 0.31257316 0.065769374 0.0640028 0.10182237 0.15363522
0.048300434 -0.27445823 0.06923199 -0.007203979 -0.06463505 0.051552556 0.30745766 0.19378778
-0.43525255 0.25782165 0.5228622 0.26917335 0.2573859 -0.32966572 -0.18500757 -0.1488391
-0.032713186 0.04106033 -0.018092848 -0.14501604 -0.31951314 -0.0368031 0.15453424 0.18767108
-0.2568034 0.33357656 -0.1689898 0.044018917 -0.19663058 0.0069347387 -0.010865278 -0.10710146
0.15527253 0.0015066569 0.3688879 0.40054646 -0.2122889 0.10852962 -0.4467217 -0.3404812
-0.24044466 -0.18724881 0.24294573 -0.119572476 0.18476939 0.18276234 0.5142646 0.2843431
-0.0022206027 -0.19085456 -0.084047765 0.0062922826 -0.08099206 0.23535827 0.06379725 0.0525423
-0.04871633 -0.10555329 -0.42932588 0.20157106 -0.14178923 -0.32248446 0.4636591 0.03065605
0.1517076 -0.33837032 -0.14725786 -0.15861095 0.0382955 0.163649 -0.14352548 -0.2823529
-0.015080212 -0.12504168 -0.19221026 -0.17471822 -0.010019861 0.33182508 0.078124866 -0.37270752
-0.43380654 -0.4138572 0.20585209 0.4178111 -0.09541038 0.2433002 0.6619655 0.0654089
-0.117278665 0.11181968 0.31308326 0.4045057 0.24152511 -0.1384382 0.31354338 0.2763168
-0.086989485 -0.06959984 -0.09179604 0.08839568 -0.22575139 -0.21707782 0.08499467 0.085176826
-0.27160814 0.27530885 0.010797822 0.18883015 0.013204278 -0.07728854 -0.26415792 -0.583939
-0.01668469 0.010827397 -0.1490653 -0.25266337 0.22633374 -0.15802641 -0.01383635 0.11344259
-0.055028338 0.2975508 0.21891733 0.12145774 0.14006062 0.17085919 0.062158544 -0.27403775
0.01619036 -0.24675229 0.03822881 0.3865834 -0.14300989 -0.12697875 -0.22226562 -0.33143255
-0.09313793 -0.057102107 0.2033386 0.12421155 -0.29399168 0.21258998 -0.173842 -0.2501405
0.021986874 0.070469126 -0.024737075 -0.0849616 0.1396811 0.06561968 0.25000298 0.14540324
0.30580845 -0.1568875 -0.3896588 -0.07592306 0.18359074 0.1088298 -0.29689568 -0.4198683
0.18631668 0.08388522 0.11260575 0.26039183 0.026891785 0.20411898 0.3022767 0.08011996
-0.3028015 -0.16620159 -0.32768977 0.0034807646 -0.10643394 0.11466296 -0.41309744 -0.15400797
-0.2527406 -0.19905365 -0.27622044 0.19397973 -0.19281311 0.39975274 -0.34938344 -0.5914676
00000000: a20f 00be 959e dc3d c0db 5f3e 68b8 363e
00000010: b822 83be 53da dfbd 0f15 8c3e ced6 bb3e
00000020: 587f d2bd 2088 0f3e 3136 973e fd73 ae3e
00000030: 9135 db3d a8a2 c23c 0010 cc3c 1746 7c3d
00000040: 1c3a f9bd 5e2c 7c3d dcec bfbe 4b00 31be
00000050: ba0d cbbd 3b69 47bd 02eb bcbd e871 4dbe
00000060: 2c0d 663e 0aae 04be 0474 3dbd 7775 e33d
00000070: eed1 a5be 3467 55be 5a0d bf3e c791 283d
00000080: ef3c b13e f8b8 9a3e 7691 9d3e 04fa 9b3e
00000090: dbbe 95be 4daf 60be 88cd a5bd e383 babe
000000a0: d02c a23e b08d a23c 11cb 1cbe 951a 8dbe
000000b0: 5260 dcbd 5c61 c93d 3416 f1bc 7a01 093f
000000c0: e54b f0bd 4b40 4d3e 544e 1d3c a9e6 e83e
000000d0: 70b7 bebd 6da8 093d 20a0 e63e 5bbc 413e
000000e0: b333 3f3e 21cf 903e a09d 18be dd9f 973d
000000f0: e710 313e aff7 a83e 46a2 10be 6351 2b3e
00000100: 95e3 7e3e 3f34 283d 8aa4 ed3e 9709 a03e
00000110: 18b2 863d e613 833d 3f88 d03d 8d52 1d3e
00000120: add6 453d ca85 8cbe 80c9 8d3d 5b0f ecbb
00000130: 625f 84bd c628 533d 176b 9d3e 4e70 463e
00000140: 6cd9 debe 3301 843e 4cda 053f 17d1 893e
00000150: 16c8 833e f2c9 a8be a072 3dbe 4769 18be
00000160: 43fe 05bd e02e 283d 7437 94bc 167f 14be
00000170: 3a97 a3be d9be 16bd 393e 1e3e d92c 403e
00000180: bc7b 83be 8cca aa3e aa0b 2dbe 2e4d 343d
00000190: 8759 49be ce3c e33b 4704 32bc 0358 dbbd
000001a0: c3ff 1e3e 047b c53a e0de bc3e 6d14 cd3e
000001b0: 4362 59be c744 de3d b5b8 e4be 8d53 aebe
000001c0: 2037 76be 27be 3fbe c4c6 783e 6ae2 f4bd
000001d0: 3034 3d3e 0d26 3b3e d8a6 033f 6b95 913e
000001e0: 8887 11bb 616f 43be 3c21 acbd 7e2f ce3b
000001f0: 2adf a5bd c201 713e 22a8 823d 9836 573d
00000200: c68a 47bd 532c d8bd 9ad0 dbbe a568 4e3e
00000210: 3231 11be af1c a5be ba64 ed3e 6622 fb3c
00000220: 3d59 1b3e e03e adbe c4ca 16be e96a 22be
00000230: bedb 1c3d 9a93 273e 58f8 12be 8f90 90be
00000240: fe12 77bc ed0a 00be c4d2 44be 55e9 32be
00000250: 582a 24bc fae4 a93e eeff 9f3d 85d3 bebe
00000260: e41b debe 17e5 d3be e4ca 523e 56eb d53e
00000270: 8466 c3bd b023 793e 9276 293f 1af5 853d
00000280: cc2f f0bd b701 e53d 734c a03e 5f1b cf3e
00000290: 5c52 773e bec2 0dbe c288 a03e 6579 8d3e
000002a0: 8b27 b2bd 5c8a 8ebd 90ff bbbd cb08 b53d
000002b0: 5f2b 67be a649 5ebe af11 ae3d 3071 ae3d
000002c0: 3910 8bbe 48f5 8c3e 59e9 303c b15c 413e
000002d0: c256 583c 7449 9ebd b53f 87be 077d 15bf
000002e0: 55ae 88bc 6565 313c 93a4 18be 185d 81be
000002f0: 08c4 673e add1 21be dcb1 62bc 9754 e83d
00000300: 6565 61bd 9458 983e dd2b 603e d6be f83d
00000310: 0d6c 0f3e b6f5 2e3e f599 7e3d ad4e 8cbe
00000320: a5a1 843c a2ac 7cbe d095 1c3d 42ee c53e
00000330: 2f71 12be b806 02be 9999 63be 87b1 a9be
00000340: 19bf bebd e6e3 69bd fe37 503e a062 fe3d
00000350: 1486 96be 30b1 593e a303 32be 6a12 80be
00000360: d11d b43c 1e52 903d 68a5 cabc 5900 aebd
00000370: 9008 0f3e 9c63 863d 6400 803e 96e4 143e
00000380: ed92 9c3e 1ea7 20be 5c81 c7be 8d7d 9bbd
00000390: 36ff 3b3e 28e2 de3d b602 98be faf8 d6be
000003a0: cdc9 3e3e 04cc ab3d d89d e63d 1452 853e
000003b0: 294c dc3c 9104 513e 03c4 9a3e ef15 a43d
000003c0: cc08 9bbe c030 2abe f4c6 a7be 8a1d 643b
000003d0: 0afa d9bd 6ad4 ea3d 8281 d3be 44b4 1dbe
000003e0: 3767 81be b8d4 4bbe c46c 8dbe 9fa2 463e
000003f0: cd70 45be 64ac cc3e 63e2 b2be 6c6a 17bf

mlp_extractor.policy_net.0.bias f4 [64]
-0.018136468 0.0074953577 -0.00032827872 -0.012230822 0.010223891 -0.006153868 -0.0004329385 0.01847468
-0.0004324945 0.014083376 -0.013436144 -0.0009959163 -0.00079524954 0.0036549824 -0.0040322547 -0.002055162
-0.0018540386 -0.013953447 0.010464821 -0.0029329958 0.009522488 0.0057392395 0.0051302556 0.012439743
0.0008489086 0.03178337 -0.0008134453 0.014138084 0.02693672 -0.023092756 0.0077886176 0.005611698
0.0020604155 0.0150268115 -0.0026112692 0.009628535 0.026131343 0.012653955 0.008928183 0.0048833294
-0.0051517747 -0.016960327 0.026641358 0.015834907 0.002034163 -0.0021609813 0.0053387024 0.0024937869
-0.016239721 -0.0041116937 -0.00011057493 0.016897386 0.008442496 0.020419525 -0.016879562 0.00039898587
0.011784498 -0.006768959 -0.014051136 -0.01034421 -5.8461752e-05 0.004623912 0.001640419 0.0051478394
00000000: ee92 94bc 9e9b f53b d31c acb9 c963 48bc
00000010: 1b82 273c 63a6 c9bb 06fc e2b9 3658 973c
00000020: 6ec0 e2b9 f6bd 663c 4623 5cbc 6889 82ba
00000030: 4b78 50ba 6e88 6f3b 0121 84bb e6af 06bb
00000040: 3603 f3ba 009d 64bc a474 2b3c 8137 40bb
00000050: 3604 1c3c 3b10 bc3b b41b a83b 10d0 4b3c
00000060: 4b89 5e3a 472f 023d 643d 55ba 6ca3 673c
00000070: 65aa dc3c 052d bdbc a937 ff3b 56e2 b73b
00000080: 0908 073b 0433 763c d421 2bbb 01c1 1d3c
00000090: 6611 d63c 8952 4f3c 8347 123c 5604 a03b
000000a0: 38d0 a8bb 62f0 8abc fa3e da3c 35b8 813c
000000b0: 984f 053b 409f 0dbb 48f0 ae3b cd6e 233b
000000c0: 2a09 85bc 63bb 86bb 77e4 e7b8 636c 8a3c
000000d0: 6552 0a3c d946 a73c 0247 8abc fa2e d139
000000e0: c413 413c 25ce ddbb bc36 66bc c37a 29bc
000000f0: d434 75b8 2f84 973b 5403 d73a 35af a83b

mlp_extractor.policy_net.2.weight f4 [64, 64]
-0.18597841 -0.1584443 -0.28748086 -0.06597663 0.25060633 0.34122068 0.20196536 -0.19503519
-0.17136937 0.29900187 0.006253209 -0.12830694 -0.0022473873 -0.07338657 0.023704005 -0.34774446
-0.19698128 0.21667267 0.07634201 -0.11031188 0.0553555 -0.04115193 0.0440031 -0.048131872
-0.07646347 -0.17769806 -0.1251627 0.055318143 -0.0657114 -0.4767102 -0.29839775 -0.13370295
0.037473492 -0.09500737 -0.12029773 -0.08304244 0.3321658 -0.20078233 -0.06795819 0.1175517
0.28202915 0.019298319 -0.30049342 -0.067774355 0.3004173 -0.05174328 0.31574637 -0.2674265
0.021371927 -0.21731612 -0.06567083 0.2830905 -0.28376344 -0.023485674 0.05984701 -0.15748106
0.16079506 0.020505287 0.0028900795 -0.13607046 0.3822367 0.03538687 0.14727187 0.3394962
0.17174138 0.26071978 -0.34239766 0.014223897 0.118517265 0.14111464 -0.27711424 0.063364185
-0.031478148 0.1152461 0.08440487 0.09495778 -0.05966987 -0.021485178 0.11183622 -0.21909916
0.27460784 -0.06379146 -0.029724995 -0.21405394 0.34053195 0.124402694 0.3188999 -0.038212813
0.1506101 -0.17414679 -0.2971265 0.14086741 0.18915796 0.16716464 -0.13919652 -0.3602725
-0.13944492 -0.1467891 0.15380971 -0.24275032 0.13291943 -0.049631078 -0.060940463 -0.1598909
-0.004272762 -0.004083555 0.11498426 -0.14817925 0.021712845 0.06439463 -0.12356433 -0.083688766
0.09166411 -0.29183045 0.18164127 0.07170677 0.082297266 -0.0045340667 0.15820622 -0.23462321
-0.06688909 0.31742743 0.01780177 0.2343663 -0.35271862 0.07552039 0.091920264 -0.2703626
-0.10448911 -0.29978222 0.06546417 0.20413783 -0.12066118 0.0792205 -0.040206876 -0.03249343
-0.07308248 0.2857949 -0.055440333 0.22734582 0.30394927 -0.34965512 -0.2444373 -0.083540395
0.24990404 -0.02662489 -0.19395214 0.25191048 -0.2200077 -0.25333127 0.002489455 0.117816985
-0.21688278 0.044716354 -0.07925726 0.07017649 -0.104663074 -0.12069682 0.041021045 0.21658833
0.034537252 -0.16501677 0.17623886 -0.22318017 0.17070891 -0.059214298 0.30839536 0.03161684
-0.087782085 0.14959419 -0.028108608 0.059608053 0.049209334 0.080833614 -0.015607012 0.15202788
-0.26526877 0.1354274 -0.118033074 0.291115 0.21021964 -0.043452054 0.22342837 -0.06744733
0.051102605 0.2749986 0.12015083 0.21495362 0.086558536 0.4544185 -0.049826656 -0.19906776
0.018454688 0.1610851 -0.2239748 -0.10827811 0.19363976 0.25023943 -0.017476797 0.116268374
0.18846007 -0.32168686 -0.109191686 -0.063184395 -8.421982e-05 -0.22692782 -0.10881332 -0.06689849
-0.116447486 -0.305053 0.072186045 -0.13699868 -0.43315843 -0.15927757 0.087916546 -0.25788018
-0.17515531 0.044686183 0.07059887 0.021588037 0.23377542 0.06803247 -0.0053648152 -0.16095601
-0.14132066 -0.3618273 -0.24180181 0.06332812 0.19807206 -0.2278488 -0.28028956 -0.20192468
0.24961743 0.113072164 0.03265248 -0.010077563 -0.08036413 0.12118792 -0.38759577 0.2278912
-0.09676408 0.40929908 -0.10924265 0.12933365 0.016095199 -0.2710949 0.035164084 -0.04466495
0.09572795 -0.13021559 -0.08434333 0.06661824 0.23616615 0.00644315 0.08034145 0.044343084
00000000: 2071 3ebe 393f 22be b130 93be c11e 87bd
00000010: 794f 803e 7ab4 ae3e 02d0 4e3e 4eb7 47be
00000020: 747b 2fbe c616 993e b8e7 cc3b e562 03be
00000030: e748 13bb b34b 96bd e72e c23c 900b b2be
00000040: 76b5 49be 71df 5d3e 3359 9c3d 32eb e1bd
00000050: 73bc 623d ed8e 28bd 983c 343d ed25 45bd
00000060: e198 9cbd 7bf6 35be a72a 00be 4795 623d
00000070: b393 86bd 5c13 f4be 97c7 98be 6de9 08be
00000080: ce7d 193d 3993 c2bd a85e f6bd 2812 aabd
00000090: a311 aa3e e299 4dbe aa2d 8bbd f2be f03d
000000a0: 2066 903e 8217 9e3c 46da 99be 48cd 8abd
000000b0: 4cd0 993e c3f0 53bd 82a9 a13e 20ec 88be
000000c0: 2e14 af3c 1e88 5ebe 6e7e 86bd 3df1 903e
000000d0: 7149 91be 0765 c0bc 2322 753d b742 21be
000000e0: 76a7 243e b4fa a73c 7d67 3d3b 0e56 0bbe
000000f0: 87b4 c33e d3f1 103d 70ce 163e 72d2 ad3e
00000100: f9dc 2f3e 107d 853e bf4e afbe 590b 693c
00000110: 2eb9 f23d 5b80 103e ebe1 8dbe 15c5 813d
00000120: 3bef 00bd 2606 ec3d 76dc ac3d 3979 c23d
00000130: 6568 74bd af01 b0bc 630a e53d 885b 60be
00000140: 6699 8c3e 19a5 82bd d581 f3bc f530 5bbe
00000150: 345a ae3e d7c6 fe3d d946 a33e 0a85 1cbd
00000160: 8939 1a3e 8953 32be f720 98be 8c3f 103e
00000170: a0b2 413e 352d 2b3e 8889 0ebe a375 b8be
00000180: a6ca 0ebe e24f 16be 4b80 1d3e 8a93 78be
00000190: 081c 083e f549 4bbd b59c 79bd 71ba 23be
000001a0: 8702 8cbb 58cf 85bb de7c eb3d 4dbc 17be
000001b0: 23df b13c 55e1 833d 4c0f fdbd 0465 abbd
000001c0: 65ba bb3d cd6a 95be 2b00 3a3e 00db 923d
000001d0: 788b a83d 8292 94bb d000 223e 1141 70be
000001e0: 26fd 88bd d985 a23e 04d5 913c b8fd 6f3e
000001f0: 8997 b4be 6faa 9a3d b140 bc3d f76c 8abe
00000200: 63fe d5bd 0e7d 99be 1412 863d 8209 513e
00000210: 351d f7bd 5c3e a23d f7af 24bd d517 05bd
00000220: 44ac 95bd b653 923e 6715 63bd 58cd 683e
00000230: 3d9f 9b3e ff05 b3be c64d 7abe 3a17 abbd
00000240: d8e6 7f3e 711c dabc 649b 46be 69fa 803e
00000250: b349 61be a3b4 81be 2026 233b 084a f13d
00000260: 8516 5ebe 7f28 373d a151 a2bd b1b8 8f3d
00000270: 9859 d6bd e52f f7bd af05 283d 55c9 5d3e
00000280: ef76 0d3d 28fa 28be f677 343e 5889 64be
00000290: 51ce 2e3e b18a 72bd ffe5 9d3e a980 013d
000002a0: 18c7 b3bd 382f 193e 0644 e6bc 9327 743d
000002b0: ba8f 493d 188c a53d 8eb4 7fbc 32ad 1b3e
000002c0: 4fd1 87be 7bad 0a3e 53bb f1bd 060d 953e
000002d0: d143 573e c8fa 31bd 68ca 643e d321 8abd
000002e0: f750 513d 9ecc 8c3e a311 f63d cd1c 5c3e
000002f0: 9a45 b13d 8ba9 e83e 0917 4cbd 6bd8 4bbe
00000300: 492e 973c 7ef3 243e a659 65be eac0 ddbd
00000310: 8049 463e 621f 803e 802b 8fbc 1d1e ee3d
00000320: adfb 403e 24b4 a4be e49f dfbd d266 81bd
00000330: 2c9f b0b8 c45f 68be 85d9 debd 1302 89bd
00000340: 057c eebd e82f 9cbe 47d6 933d 6249 0cbe
00000350: f1c6 ddbe a919 23be 970d b43d df08 84be
00000360: ea5b 33be dc08 373d 2496 903d 65d9 b03c
00000370: d362 6f3e 9c54 8b3d 55cb afbb a7d1 24be
00000380: 5db6 10be 6e41 b9be e59a 77be 2cb2 813d
00000390: 67d3 4a3e 3251 69be 1d82 8fbe 58c5 4ebe
000003a0: b69b 7f3e 6192 e73d 9bbe 053d 5d1c 25bc
000003b0: f395 a4bd 5f31 f83d f472 c6be 505c 693e
000003c0: 3f2c c6bd a68f d13e 9cba dfbd 0a70 043e
000003d0: 14da 833c f3cc 8abe 3708 103d 98f2 36bd
000003e0: 040d c43d 3c57 05be 32bc acbd 256f 883d
000003f0: 8ad5 713e 0f21 d33b 0f8a a43d 18a1 353d

mlp_extractor.policy_net.2.bias f4 [64]
0.007027486 -0.007925815 0.0038384635 -0.0061736885 0.008307224 -0.0020287342 -0.005377525 0.005005906
0.012654524 -0.002186769 -0.008091903 0.008941432 0.009107216 0.0053142714 -0.00023245937 0.0013818017
-0.008489928 -0.002860078 0.0064521963 -0.00354423 -0.00033520407 -0.002507202 0.0110274935 -0.003979436
0.0028891119 -0.003258541 -0.012432062 -0.008758348 -0.000916282 0.0012799981 -0.007092481 -0.0050970423
-0.0010441265 0.0044493335 -0.0041173985 0.00914664 -0.007911543 0.0042115618 -0.007958712 0.0014733374
0.004289634 0.00161439 -0.0034891993 0.0047087027 0.006730213 -0.0068436316 -0.0006981524 0.00872269
0.009280909 0.0051741265 0.005468572 0.0051512117 -0.0013839426 -0.0034558019 -0.0092954105 0.00460263
-0.0047823507 0.012514416 0.007900698 0.0058572204 -0.008332322 0.00978215 -0.009847286 0.0041729235
00000000: d346 e63b 47db 01bc bb8e 7b3b a74c cabb
00000010: 061b 083c 83f4 04bb f335 b0bb 9508 a43b
00000020: ec54 4f3c e54f 0fbb e793 04bc 167f 123c
00000030: 6f36 153c 5723 ae3b 56c0 73b9 921d b53a
00000040: 5719 0bbc 2570 3bbb f26c d33b 5046 68bb
00000050: 54be afb9 df4f 24bb a9ac 343c ee65 82bb
00000060: 4157 3d3b 3f8d 55bb d9af 4bbc 2d7f 0fbc
00000070: a532 70ba 9cc5 a73a 0b68 e8bb 1705 a7bb
00000080: 12db 88ba b7cb 913b 3eeb 86bb cadb 153c
00000090: 6b9f 01bc 2401 8a3b 4265 02bc 001d c13a
000000a0: 0f90 8c3b f199 d33a 0dab 64bb 764b 9a3b
000000b0: 1e89 dc3b 8b40 e0bb 3704 37ba 9de9 0e3c
000000c0: f40e 183c b88b a93b b531 b33b 7fcb a83b
000000d0: 6865 b5ba bc7a 62bb c74b 18bc a9d1 963b
000000e0: 44b5 9cbb 4409 4d3c ee71 013c eded bf3b
000000f0: 4b84 08bc 5045 203c 8356 21bc 05bd 883b

mlp_extractor.value_net.0.weight f4 [64, 4]
0.28254202 0.22167605 0.20772842 0.05022428 0.039568126 0.10254484 0.53636324 0.20723157
0.26625824 -0.07018801 -0.19932042 -0.067745194 -0.047726393 0.2090623 0.33959326 0.38182375
0.14729951 0.0813888 -0.091116376 -0.08825256 0.10624391 0.08675039 -0.16297826 -0.26683542
0.074300624 0.18710014 -0.332187 -0.20297928 -0.6635876 -0.0021434105 -0.03162355 -0.14158951
0.07365079 0.06508738 0.23008302 0.37773427 -0.0072333403 -0.110395506 0.11520185 0.16503999
-0.17141207 -0.0338512 -0.61499286 -0.28231892 0.39190254 0.06526737 0.35415655 0.038355917
-0.2882147 -0.12313669 -0.6854169 -0.17188981 -0.1668974 0.004507784 -0.37223932 -0.19563183
-0.15537708 -0.34537974 0.2588572 -0.14174964 0.023748457 0.009988245 -0.2797179 -0.18100682
-0.093764775 0.017032593 -0.3347236 -0.19240996 -0.24532373 -0.23223352 -0.18108042 -0.23994651
0.3574283 -0.03972413 0.8078525 0.16609316 -0.30498344 -0.0105523225 0.42061684 0.17751971
0.20227587 0.045747142 -0.47953925 -0.13871196 0.2067588 -0.034842066 0.29820928 0.030433971
0.30160522 -0.049349543 0.42374232 0.25280866 0.17084502 0.17935884 -0.19101535 -0.16198985
-0.39146972 -0.33536825 -0.33725855 -0.15792663 -0.39426056 -0.053282674 0.20871718 0.103948794
0.46012136 0.0030739228 -0.4167834 -0.30963245 0.22245213 -0.05737247 0.16812752 0.33573017
-0.5768623 0.2097859 0.41918737 0.25732723 -0.13367544 0.2638564 -0.7148068 -0.08492834
-0.21985587 -0.2124251 -0.48719049 -0.14876994 0.2711898 -0.1441255 -0.030768044 -0.055221897
-0.11674582 -0.22052445 -0.44702992 -0.035973445 -0.27534905 -0.08046065 0.07472085 0.1486224
-0.0620738 0.05572282 -0.50949275 -0.1643629 -0.37027696 -0.059693284 -0.539538 -0.0318681
0.13581662 0.3194551 0.07338429 -0.15780243 0.0035335352 0.42834455 -0.4132042 -0.06684922
-0.2998441 0.13775669 -0.6953811 -0.28027537 0.20338044 0.4452716 0.10429466 0.1995401
-0.2475897 -0.2446062 -0.50464123 -0.22960201 -0.02677827 -0.15529852 -0.42628804 -0.2364491
0.330674 0.044462476 0.34102812 0.09719592 -0.04132033 0.12176755 0.9059204 0.29327077
0.054948997 0.17526282 -0.035812892 -0.08793806 0.3837986 0.5394767 0.052223865 -0.08944896
-0.068968005 0.20233019 0.48562312 0.16597754 -0.06544518 0.038550332 0.49929583 0.43436775
-0.11127156 -0.26711282 -0.5812179 -0.2924398 -0.18483987 0.111052796 -0.180341 -0.2795423
-0.173985 -0.07172033 -0.2889352 -0.1959271 0.2992677 0.11319498 -0.5573848 -0.13123733
0.42783555 0.29032665 0.4643233 0.2271531 0.24828015 0.2416578 0.8171179 0.07465563
0.269285 -0.14609055 -0.2697797 -0.6265981 -0.11084172 -0.062439304 0.36767435 0.3169434
0.100397415 -0.012563748 0.7136459 0.06745962 -0.31252676 -0.4301587 -0.441639 -0.3440192
-0.33168936 -0.12547952 -0.80741346 -0.11310884 0.2336834 0.24865963 0.65366733 0.28087103
0.07097029 0.056809913 -0.39812532 -0.16888496 -0.35293192 -0.07191076 -0.667126 0.046619296
0.38899618 -0.28511798 -0.289541 -0.015428462 -0.3165857 -0.21957384 -0.35353604 -0.20480448
00000000: 59a9 903e 0cff 623e c2b6 543e fab7 4d3d
00000010: 3012 223d 0703 d23d 1a4f 093f 8334 543e
00000020: 0053 883e bbbe 8fbd a71a 4cbe febd 8abd
00000030: c07c 43bd 6d14 563e 2bdf ad3e 677e c33e
00000040: afd5 163e 2caf a63d 399b babd c2bd b4bd
00000050: 6896 d93d 30aa b13d c6e3 26be a79e 88be
00000060: ed2a 983d 2e97 3f3e 6a14 aabe cdd9 4fbe
00000070: e1e0 29bf 7678 0cbb b287 01bd d7fc 10be
00000080: 3ad6 963d 884c 853d e29a 6b3e 6366 c13e
00000090: a805 edbb 0a17 e2bd f3ee eb3d 3e00 293e
000000a0: a586 2fbe 8ea7 0abd 2c70 1dbf 1b8c 90be
000000b0: 73a7 c83e e6aa 853d 0254 b53e 181b 1d3d
000000c0: e190 93be 172f fcbd 7b77 2fbf e203 30be
000000d0: 27e7 2abe 08b6 933b 2796 bebe b653 48be
000000e0: 2b1b 1fbe 9dd5 b0be ee88 843e d126 11be
000000f0: 208c c23c bca5 233c 2f37 8fbe da59 39be
00000100: bf07 c0bd f087 8b3c e460 abbe 1e07 45be
00000110: 2536 7bbe a0ce 6dbe 256d 39be 8ab4 75be
00000120: d800 b73e c5b5 22bd 6ccf 4e3f 5314 2a3e
00000130: ca26 9cbe a6e3 2cbc 175b d73e bac7 353e
00000140: 6821 4f3e 5b61 3b3d 2b86 f5be 820a 0ebe
00000150: 94b8 533e 8eb6 0ebd e3ae 983e aa50 f93c
00000160: 006c 9a3e bf22 4abd c1f4 d83e 2370 813e
00000170: fff1 2e3e d8a9 373e 8799 43be abe0 25be
00000180: b86e c8be 63b5 abbe 27ad acbe 85b7 21be
00000190: 85dc c9be ef3e 5abd f5b9 553e 1be3 d43d
000001a0: 0795 eb3e de73 493b a264 d5be 2588 9ebe
000001b0: 7eca 633e 65ff 6abd 9f29 2c3e d3e4 ab3e
000001c0: 3fad 13bf 1dd2 563e ba9f d63e 65c0 833e
000001d0: 37e2 08be 3018 873e 94fd 36bf e9ee adbd
000001e0: e621 61be f785 59be 0871 f9be 2657 18be
000001f0: 64d9 8a3e a395 13be 440d fcbc 5b30 62bd
00000200: 6f18 efbd 29d1 61be 1be1 e4be e458 13bd
00000210: 8dfa 8cbe 8ec8 a4bd 3f07 993d 7830 183e
00000220: 1941 7ebd 9d3d 643d 1e6e 02bf c04e 28be
00000230: f194 bdbe f280 74bd 2a1f 0abf 2088 02bd
00000240: 8313 0b3e 9e8f a33e 814a 963d f696 21be
00000250: e292 673b fa4f db3e 808f d3be 3ee8 88bd
00000260: 2a85 99be 1710 0d3e 7f04 32bf 4180 8fbe
00000270: f642 503e a4fa e33e 7098 d53d 3d54 4c3e
00000280: 2888 7dbe 0c7a 7abe 2b30 01bf ca1c 6bbe
00000290: 1a5e dbbc 9306 1fbe 6d42 dabe b61f 72be
000002a0: 1a4e a93e 491e 363d 3d9b ae3e a80e c73d
000002b0: 823f 29bd 4461 f93d 66ea 673f 9627 963e
000002c0: 3312 613d 1978 333e 8ab0 12bd df18 b4bd
000002d0: 4081 c43e 251b 0a3f b1e8 553d 0431 b7bd
000002e0: 193f 8dbd a52f 4f3e 98a3 f83e 04f6 293e
000002f0: 1f08 86bd f4e6 1d3d b4a3 ff3e 7365 de3e
00000300: 58e2 e3bd 03c3 88be b2ca 14bf abba 95be
00000310: aa46 3dbe a66f e33d 50ab 38be 2b20 8fbe
00000320: 2029 32be 1ce2 92bd 51ef 93be 1da1 48be
00000330: 9e39 993e c5d2 e73d c5b0 0ebf 1463 06be
00000340: 430d db3e b2a5 943e c9bb ed3e d29a 683e
00000350: 273d 7e3e 2475 773e a42e 513f 0de5 983d
00000360: b9df 893e c398 15be 9120 8abe bc68 20bf
00000370: fc00 e3bd 5bc0 7fbd d03f bc3e 6846 a23e
00000380: 299d cd3d 2ed8 4dbc 7fb1 363f 4528 8a3d
00000390: 8203 a0be c33d dcbe 821e e2be 4923 b0be
000003a0: 30d3 a9be b47d 00be a6b2 4ebf 9ca5 e7bd
000003b0: b44a 6f3e a1a0 7e3e be56 273f 54ce 8f3e
000003c0: df58 913d 83b1 683d 15d7 cbbe 2ef0 2cbe
000003d0: 7eb3 b4be f345 93bd c5c8 2abf e0f3 3e3d
000003e0: 822a c73e fcfa 91be b83e 94be a9c7 7cbc
000003f0: 8517 a2be f7d7 60be ad02 b5be 44b8 51be

mlp_extractor.value_net.0.bias f4 [64]
-0.28538746 0.18584771 0.25267485 -0.24473147 0.24353431 0.22370681 -0.22351635 0.2850364
0.2312781 0.2613785 -0.19262859 0.20551771 0.27069002 -0.23914026 0.25375783 0.22138602
-0.22832145 0.23039901 -0.24031495 -0.26043344 -0.19278488 -0.2255856 0.23596868 -0.22522777
0.28395766 0.2512458 -0.28428355 0.18695238 -0.3003445 0.25222367 -0.19520615 0.24961428
-0.20389777 0.25399342 0.24582952 -0.24418736 0.21554564 -0.22528756 0.2323269 -0.24439995
0.25271526 -0.17495415 0.20549537 0.23679774 -0.19322868 0.20536445 -0.24896382 0.17892203
-0.1754133 0.30876908 0.2436873 0.24723434 -0.2744773 0.18583946 0.27768487 0.26078185
-0.28011122 -0.18479483 0.23536856 0.20796889 -0.2047453 0.26554888 0.23253275 -0.24173987
00000000: 4e1e 92be dd4e 3e3e 995e 813e e39a 7abe
00000010: 0f61 793e 6613 653e 78e1 64be 4bf0 913e
00000020: 2bd4 6c3e 67d3 853e 6e40 45be 3c73 523e
00000030: e297 8a3e 2fe1 74be 8cec 813e 04b3 623e
00000040: 19cd 69be b8ed 6b3e 1f15 76be 8857 85be
00000050: 6669 45be e9ff 66be c6a1 713e 1ca2 66be
00000060: e662 913e 4aa3 803e 9d8d 91be 7270 3f3e
00000070: c1c6 99be 7623 813e 1fe4 47be e39a 7f3e
00000080: 94ca 50be 6d0b 823e bcba 7b3e 400c 7abe
00000090: ffb7 5c3e c8b1 66be 1ae7 6d3e fb43 7abe
000000a0: e563 813e 2e27 33be 616d 523e 1b7b 723e
000000b0: bddd 45be 0f4b 523e 5ff0 7ebe 5637 373e
000000c0: 8b9f 33be fb16 9e3e 2a89 793e 002b 7d3e
000000d0: 4a88 8cbe b34c 3e3e b62c 8e3e 3385 853e
000000e0: bd6a 8fbe db3a 3dbe 7504 713e ccf5 543e
000000f0: c0a8 51be 06f6 873e 111d 6e3e a88a 77be

mlp_extractor.value_net.2.weight f4 [64, 64]
0.40113267 0.11368726 -0.27670464 0.38608488 -0.40266198 -0.08778474 0.11640732 -0.47185606
-0.04441146 0.28152043 -0.06960667 0.27639678 -0.81732327 0.33037174 -0.14967714 -0.21512699
0.016931796 -0.6200809 0.5240489 0.5379279 0.1628264 0.21002103 0.4897989 0.18056494
-0.80576444 0.042542763 -0.029694192 -0.0964739 0.42221677 -0.2627105 -0.04130149 -0.2307041
0.022154896 -0.3496675 -0.42444414 -0.09392723 -0.21357356 0.06356531 -0.23381256 0.75908357
-0.27151424 0.012348609 0.05099654 0.12953407 -0.014774879 0.045194015 0.68198705 0.11388204
-0.039655555 0.011278394 -0.3291244 -0.17460449 0.42756876 0.60156757 -0.00033507706 -0.03431731
0.45124424 0.06335442 -0.6487277 0.3217508 -0.20651989 -0.50552964 -0.47280222 -0.36212534
0.25930005 0.096747324 0.116523325 0.12579559 0.4451526 0.0018261381 -0.13781466 -0.16445404
0.028964026 0.26803133 -0.5007639 0.8337167 -0.1455887 -0.37141162 0.44795316 0.12112038
0.012067684 -0.0681108 0.17672221 -0.17534617 -0.10170336 -0.17981741 0.5314701 -0.22644094
-0.028651385 0.11657137 -0.08517012 0.2677647 -0.12008907 -0.42483544 -0.8956015 0.32419756
-0.31002313 -0.20477398 0.063245624 -0.5557783 0.35921574 -0.20562154 -0.41341898 0.05599086
-0.41622016 -0.22710876 0.53250504 0.2525774 -0.07947862 0.27423698 -0.47398847 -0.09042659
-0.06713067 -0.024834642 -0.26873514 0.2072229 0.11051765 0.40168986 0.12783037 0.1653364
-0.31687942 -0.6300211 -0.13301073 0.6642955 -0.1692788 -0.0032565072 0.42140287 -0.7900047
0.47088987 -0.3050801 -0.35361663 -0.03946124 -0.2704551 -0.0643169 0.23081191 -0.3404969
0.0935649 -0.40115893 0.37735412 -0.32851946 -0.3873644 0.1562712 -0.25432432 -0.04243166
0.5861627 -0.17183226 0.33316475 0.07349733 0.7845383 0.32787678 -0.023479376 0.50009227
-0.10265721 -0.43488526 0.6511821 -0.20941958 0.02071085 -0.09322085 0.37379503 -0.41316384
0.014919351 -0.51998705 0.09243518 0.19682974 -0.15615848 0.26658502 -0.16964962 0.42743346
0.06028188 0.5108121 0.11286277 -0.64134884 0.42208907 -0.32436174 -0.17820917 -0.4791424
0.18872504 -0.1415251 -0.2489412 0.2854559 0.22109833 -0.26062903 0.10151229 -0.34440675
0.42445454 0.030460877 -0.113735974 -0.1081683 0.384068 -0.5793528 -0.09790215 0.5018859
0.57938963 -0.21447644 0.21162297 -0.038655926 -0.045073967 -0.15689696 0.53255326 -0.3818287
-0.094282165 -0.46476656 0.066589765 -0.24375904 -0.54235786 0.1921595 -0.51578164 0.04941696
0.1684926 -0.3448923 0.105458334 0.04043859 0.48227686 0.3727542 -0.33798885 0.753596
-0.31095162 -0.50420535 0.45377368 -0.23269668 0.26520148 -0.15146191 0.18119805 -0.14483832
0.19440459 -0.4173284 -0.22682047 0.14126292 -0.11556366 0.7263571 -0.12011263 0.5323607
-0.7606626 0.22919285 0.067231625 -0.11277231 0.21501912 -0.0524256 0.18460108 -0.022817139
0.49118695 0.16539922 -0.2738035 0.091796055 0.049484193 0.10065348 0.36777017 0.024438586
0.17852175 -0.024546761 -0.66974646 -0.17558497 0.4703399 -0.3665901 0.02866835 0.39405304
00000000: 4361 cd3e ded4 e83d 3bac 8dbe ebac c53e
00000010: b629 cebe 7cc8 b3bd f666 ee3d 1e97 f1be
00000020: cbe8 35bd 7223 903e f18d 8ebd e183 8d3e
00000030: 193c 51bf 7c26 a93e f744 19be 404a 5cbe
00000040: 8db4 8a3c 9fbd 1ebf 1228 063f a5b5 093f
00000050: f7bb 263e c10f 573e ecc6 fa3e 04e6 383e
00000060: 9446 4ebf 5241 2e3d 3c41 f3bc 1c94 c5bd
00000070: cc2c d83e fe81 86be c02b 29bd b23d 6cbe
00000080: 2f7e b53c 9e07 b3be be50 d9be eb5c c0bd
00000090: 07b3 5abe 872e 823d 8f6c 6fbe 4d53 423f
000000a0: ea03 8bbe d251 4a3c bfe1 503d 94a4 043e
000000b0: 5612 72bc 5c1d 393d b496 2e3f fd3a e93d
000000c0: dd6d 22bd 03c9 383c fe82 a8be 85cb 32be
000000d0: 4bea da3e 5500 1a3f 48ad afb9 4f90 0cbd
000000e0: 7c09 e73e f6bf 813d 0513 26bf 85bc a43e
000000f0: f379 53be 646a 01bf 2213 f2be 7e68 b9be
00000100: fac2 843e 7623 c63d c8a3 ee3d 8fd0 003e
00000110: 0beb e33e 075b ef3a 491f 0dbe a466 28be
00000120: f745 ed3c 673b 893e 1032 00bf 756e 553f
00000130: 3415 15be aa29 bebe 1e5a e53e f60d f83d
00000140: 89b7 453c ad7d 8bbd abf6 343e f28d 33be
00000150: da49 d0bd 0e22 38be 6d0e 083f 22e0 67be
00000160: 4fb6 eabc f8bc ee3d ac6d aebd 7418 893e
00000170: 42f1 f5bd 0884 d9be 2446 65bf 39fd a53e
00000180: 5abb 9ebe 45b0 51be ec86 813d 7d47 0ebf
00000190: 20eb b73e 748e 52be a7ab d3be ac56 653d
000001a0: cf1a d5be 338f 68be 4052 083f d351 813e
000001b0: b0c5 a2bd ca68 8c3e 9eae f2be 9331 b9bd
000001c0: ce7b 89bd 0572 cbbc a797 89be 3d32 543e
000001d0: 1457 e23d 4baa cd3e f7e5 023e f24d 293e
000001e0: 053e a2be 1049 21bf f733 08be 450f 2a3f
000001f0: 6c57 2dbe 206b 55bb 1ec2 d73e bf3d 4abf
00000200: 7a18 f13e 7533 9cbe 3d0d b5be 1ca2 21bd
00000210: 1779 8abe 94b8 83bd f559 6c3e 9c55 aebe
00000220: f49e bf3d b464 cdbe 8f34 c13e b433 a8be
00000230: a054 c6be 8f05 203e cc36 82be d2cc 2dbd
00000240: c20e 163f ccf4 2fbe 9294 aa3e c585 963d
00000250: 81d7 483f 77df a73e d257 c0bc 0c06 003f
00000260: f13d d2bd 48a9 debe dfb3 263f 1672 56be
00000270: cda9 a93c 93ea bebd 1062 bf3e 368a d3be
00000280: 4b70 743c df1d 05bf a84e bd3d bc8d 493e
00000290: 02e8 1fbe d57d 883e a1b8 2dbe 8fd8 da3e
000002a0: 22ea 763d 95c4 023f 9924 e73d 702f 24bf
000002b0: 0f1c d83e be12 a6be 777c 36be 2752 f5be
000002c0: 2341 413e f5eb 10be 71ea 7ebe 4727 923e
000002d0: 9a67 623e 2b71 85be ade5 cf3d 1556 b0be
000002e0: 1b52 d93e 1789 f93c 68ee e8bd 5787 ddbd
000002f0: 90a4 c43e 7750 14bf ec80 c8bd 987b 003f
00000300: e152 143f b69f 5bbe b1b3 583e ad55 1ebd
00000310: 7b9f 38bd 99a9 20be 6955 083f 0d7f c3be
00000320: 0217 c1bd e2f5 edbe 3760 883d f89b 79be
00000330: f7d7 0abf 76c5 443e 440a 04bf 7069 4a3d
00000340: 5389 2c3e b995 b0be 8afa d73d efa2 253d
00000350: feec f63e a3d9 be3e e00c adbe abeb 403f
00000360: 0d35 9fbe 9a13 01bf 0655 e83e 0a48 6ebe
00000370: 7dc8 873e d518 1bbe fb8b 393e 7f50 14be
00000380: ff11 473e 11ac d5be a043 68be 3aa7 103e
00000390: a4ac ecbd 8af2 393f 9cfd f5bd ca48 083f
000003a0: c9ba 42bf 88b1 6a3e bcb0 893d 2bf5 e6bd
000003b0: f92d 5c3e 3abc 56bd 1108 3d3e 02eb babc
000003c0: db7c fb3e 6a5e 293e f92f 8cbe 92ff bb3d
000003d0: f0af 4a3d 6923 ce3d 5f4c bc3e 6e33 c83c
000003e0: 68ce 363e 4a16 c9bc 8174 2bbf 8ccc 33be
000003f0: 64d0 f03e b3b1 bbbe e3d9 ea3c 52c1 c93e

mlp_extractor.value_net.2.bias f4 [64]
-0.1280882 0.027139513 -0.13106087 -0.15324111 0.1638207 -0.19476491 -0.10235 -0.16243236
0.07961929 -0.14439048 -0.16747776 -0.098314196 0.14203753 0.078448206 0.116444066 -0.15160966
0.14214851 0.11196748 -0.08196599 -0.14070868 0.027185425 -0.112075344 -0.21750624 -0.16260251
0.096103474 0.15202217 0.09018755 -0.104142584 -0.14059913 0.10978152 0.12039584 -0.2208018
0.13950484 -0.1273596 -0.17079408 0.10339096 0.04048544 0.024947267 0.07339875 -0.1307193
0.10784955 0.13007529 -0.17819516 -0.09935768 0.17249134 -0.12212489 0.13392161 -0.22279839
0.17975484 -0.044248037 0.17298484 0.29022402 0.14628723 -0.17867947 0.17267962 -0.2225668
0.10873892 0.2267356 0.15617152 -0.08895033 -0.10292859 0.12908064 0.097420886 -0.10954279
00000000: 8e29 03be af53 de3c d234 06be 3deb 1cbe
00000010: 9dc0 273e 7470 47be e09c d1bd ab54 26be
00000020: 700f a33d 19db 13be 4a7f 2bbe f458 c9bd
00000030: 4972 113e 74a9 a03d 3a7a ee3d 903f 1bbe
00000040: 618f 113e 354f e53d c9dd a7bd f015 10be
00000050: f8b3 de3c c287 e5bd f5b9 5ebe 4681 26be
00000060: e6d1 c43d b3ab 1b3e 40b4 b83d b548 d5bd
00000070: 38f9 0fbe 22d5 e03d 1892 f63d de19 62be
00000080: 5bda 0e3e 8e6a 02be a5e4 2ebe a4be d33d
00000090: 10d4 253d 365e cc3c 1552 963d 48db 05be
000000a0: 3ae0 dc3d 7532 053e cb78 36be 0a7c cbbd
000000b0: 92a1 303e 9d1c fabd bf22 093e 4325 64be
000000c0: a711 383e 6e3d 35bd f022 313e 3e98 943e
000000d0: 52cc 153e c0f7 36be edd2 303e 8de8 63be
000000e0: 83b2 de3d 612d 683e 6deb 1f3e 972b b6bd
000000f0: 39cc d2bd b72d 043e 9a84 c73d f857 e0bd

action_net.weight f4 [2, 64]
0.06914878 -0.009232026 0.014881818 0.054473124 0.048926335 -0.02924267 -0.039444692 -0.105913736
0.011000605 0.10227894 0.036845308 -0.051272918 -0.035879727 -0.077316724 0.04573514 -0.036625262
-0.05779849 -0.007697748 -0.014030867 0.01617861 0.007441105 0.027034305 0.0056824926 -0.015187179
0.08955485 0.050644364 -0.09143264 -0.023841068 0.061475184 -0.039068583 -0.062217064 0.013580978
0.06235276 -0.09957568 0.038387734 -0.017473558 -0.055941068 0.006535242 -0.08358363 0.06691959
-0.00951785 -0.009613719 0.039957006 0.010175723 0.070814155 -0.0978394 0.09304659 -0.058995295
-0.029899107 -0.04819631 -0.05633233 -0.033357132 -0.029996641 0.06458345 0.07169766 -0.03652571
-0.07864314 -0.06496409 0.08636903 -0.042558324 -0.05374982 0.08842666 0.032108646 -0.025016522
-0.06776231 0.008554444 -0.015620211 -0.05514101 -0.047576293 0.031887338 0.040783882 0.106499106
-0.009128467 -0.10167208 -0.038108397 0.049162142 0.037700575 0.07305052 -0.04587428 0.036668118
0.059121527 0.007182361 0.015970467 -0.014520914 -0.007531606 -0.02807879 -0.0052917623 0.017268294
-0.08947525 -0.047917012 0.0908669 0.025124487 -0.06532956 0.035584945 0.060453787 -0.013426254
-0.061860174 0.09622036 -0.038282927 0.017416647 0.056363083 -0.007525399 0.0863013 -0.06830535
0.011024309 0.007890547 -0.03973805 -0.012433652 -0.06989615 0.09952748 -0.09005236 0.06014831
0.026161443 0.050202973 0.05807985 0.030392114 0.02759262 -0.064733945 -0.07033011 0.03706291
0.07778278 0.06394027 -0.08742305 0.044216916 0.0524327 -0.08959832 -0.032301698 0.022256397
00000000: e09d 8d3d ec41 17bc ded2 733c 361f 5f3d
00000010: fb66 483d 538e efbc c290 21bd 4de9 d8bd
00000020: e23b 343c 9f77 d13d 1beb 163d 8d03 52bd
00000030: 9ff6 12bd 3b58 9ebd c554 3b3d 5f04 16bd
00000040: 1cbe 6cbd 643d fcbb b9e1 65bc 0189 843c
00000050: 83d4 f33b 0c77 dd3c 3434 ba3b a5d3 78bc
00000060: 8868 b73d 7770 4f3d 0941 bbbd 584e c3bc
00000070: 67cd 7b3d 6106 20bd 52d7 7ebd c082 5e3c
00000080: 9c65 7f3d 56ee cbbd 753c 1d3d b524 8fbc
00000090: 7622 65bd 9525 d63b e52d abbd 230d 893d
000000a0: c2f0 1bbc dc82 1dbc f5a9 233d 13b8 263c
000000b0: 0307 913d 0660 c8bd 368f be3d 0da5 71bd
000000c0: f9ee f4bc 7e69 45bd bbbc 66bd 7da1 08bd
000000d0: 84bb f5bc 5444 843d 39d6 923d fc9b 15bd
000000e0: a80f a1bd e50b 85bd 3fe2 b03d a351 2ebd
000000f0: c528 5cbd 0919 b53d 5b84 033d 73ef ccbc
00000100: f7c6 8abd f027 0c3c eaeb 7fbc 8adb 61bd
00000110: 5cdf 42bd 4c9c 023d 000d 273d 341c da3d
00000120: 918f 15bc 7439 d0bd 8d17 1cbd 3e5e 493d
00000130: eb6b 1a3d 839b 953d abe6 3bbd 4f31 163d
00000140: 6a29 723d 035a eb3b 7fd4 823c 21e9 6dbc
00000150: b1cb f6bb 7e05 e6bc 8566 adbb 3d76 8d3c
00000160: cd3e b7bd a144 44bd 6d18 ba3d ded1 cd3c
00000170: 81cb 85bd 85c1 113d 649e 773d caf9 5bbc
00000180: 1861 7dbd 2e0f c53d 8fce 1cbd 5bad 8e3c
00000190: fadc 663d 9f97 f6bb bcbe b03d ade3 8bbd
000001a0: 4e9f 343c 5a47 013c 5ec4 22bd 84b6 4bbc
000001b0: b625 8fbd 10d5 cb3d 5f6d b8bd 135e 763d
000001c0: 8650 d63c a2a1 4d3d 23e5 6d3d e2f8 f83c
000001d0: eb09 e23c 3b93 84bd 3c09 90bd 47cf 173d
000001e0: 944c 9f3d 1ef3 823d db0a b3bd cc1c 353d
000001f0: acc3 563d 537f b7bd c94e 04bd 0c53 b63c

action_net.bias f4 [2]
-0.0034462763 0.0034462723
00000000: ecda 61bb dbda 613b

value_net.weight f4 [1, 64]
-1.02539 0.9893445 -1.0920773 -0.9461694 0.9068395 -0.9685524 -1.1122116 -0.9963177
1.246028 -1.0619222 -1.0194161 -1.1291379 0.9420897 0.9636594 1.0064697 -0.93669796
1.062039 1.061064 -1.0240064 -0.9837787 1.1074588 -1.0984027 -0.9868752 -0.9200471
1.1811836 1.0101384 1.0533351 -1.1588266 -1.0411805 0.93104446 1.1142685 -0.9757982
1.0502369 -1.0328826 -0.9433444 0.943078 1.093834 1.0539615 0.9968829 -1.0453718
1.1372178 0.9925853 -0.95656544 -0.9802077 1.0264859 -1.0435016 0.97415787 -0.94044423
0.9340682 -0.9599548 1.0334935 0.9191375 0.98004335 -0.95867246 1.0301539 -0.9711008
1.1370786 0.9462502 0.9994155 -0.961312 -1.0272323 1.0164918 1.0296742 -1.159848
00000000: fb3f 83bf ae45 7d3f 30c9 8bbf 2838 72bf
00000010: a226 683f 0df3 77bf f35c 8ebf ad0e 7fbf
00000020: d87d 9f3f 11ed 87bf 3a7c 82bf 9787 90bf
00000030: ca2c 713f 62b2 763f 00d4 803f 70cb 6fbf
00000040: e5f0 873f f2d0 873f a412 83bf ecd8 7bbf
00000050: 36c1 8d3f 7698 8cbf daa3 7cbf 3588 6bbf
00000060: 0631 973f 374c 813f afd3 863f 6e54 94bf
00000070: 6745 85bf ee58 6e3f 5aa0 8e3f e9cd 79bf
00000080: 2a6e 863f 7f35 84bf 057f 71bf 8f6d 713f
00000090: c102 8c3f 36e8 863f b833 7f3f bece 85bf
000000a0: 5a90 913f 121a 7e3f 79e1 74bf e4ee 7abf
000000b0: e463 833f 7691 85bf 6962 793f f4c0 70bf
000000c0: 181f 6f3f 99bf 75bf 8449 843f 984c 6b3f
000000d0: 1fe4 7a3f 8f6b 75bf 15dc 833f 109a 78bf
000000e0: cb8b 913f 743d 723f b2d9 7f3f 8b18 76bf
000000f0: 597c 83bf 671c 823f 5dcc 833f e675 94bf
